…
nse(1)(H)\r\n","\r\n","model = tf.keras.models.Model(X,Y)\r\n","model.compile(loss='mse')\r\n","\r\n","#모델확인\r\n","model.summary()"],"execution_count":40,"outputs":[{"output_type":"stream","text":["Model: \"model_8\"\n","_________________________________________________________________\n","Layer (type)                 Output Shape              Param #   \n","=================================================================\n","input_11 (InputLayer)        [(None, 13)]              0         \n","_________________________________________________________________\n","dense_23 (Dense)             (None, 10)                140       \n","_________________________________________________________________\n","dense_24 (Dense)             (None, 10)                110       \n","_________________________________________________________________\n","dense_25 (Dense)             (None, 10)                110       \n","_________________________________________________________________\n","dense_26 (Dense)             (None, 10)                110       \n","_________________________________________________________________\n","dense_27 (Dense)             (None, 10)                110       \n","_________________________________________________________________\n","dense_28 (Dense)             (None, 10)                110       \n","_________________________________________________________________\n","dense_29 (Dense)             (None, 10)                110       \n","_________________________________________________________________\n","dense_30 (Dense)             (None, 10)                110       \n","_________________________________________________________________\n","dense_31 (Dense)             (None, 10)                110       \n","_________________________________________________________________\n","dense_32 (Dense)             (None, 10)                110       \n","_________________________________________________________________\n","dense_33 (Dense)             (None, 10)                110       \n","_________________________________________________________________\n","dense_34 (Dense)             (None, 10)                110       \n","_________________________________________________________________\n","dense_35 (Dense)             (None, 10)                110       \n","_________________________________________________________________\n","dense_36 (Dense)             (None, 1)                 11        \n","=================================================================\n","Total params: 1,471\n","Trainable params: 1,471\n","Non-trainable params: 0\n","_________________________________________________________________\n"],"name":"stdout"}]},{"cell_type":"code","metadata":{"colab":{"base_uri":"https://localhost:8080/"},"id":"mnYZmRHyGxog","executionInfo":{"status":"ok","timestamp":161199
…
